model/keypoint_classifier/keypoint_classifier.tflite (tflite, 6584 bytes, 6 tensors)

arith.constant f4 [5, 10]
00000000: 0bbe 633f 49a1 4abf b50b 413e dbe4 b4be
00000010: 4643 10bf 617a 1a3e 6aec 00be 1edb 10bf
00000020: 446d a8be 489e 7b3f 5a53 e6be 4604 7c3f
00000030: 71ce debe ef0c b23f 357f 60be 6a71 72be
00000040: 3c9e 9dbf b43d 0ebe d6bb 6f3f 59a0 e83d
00000050: 36cf 683e 9c0c 1a3f 8685 91bf 7d99 3dbf
00000060: ee70 71bf 9304 46be 2dfa 3c3f d065 d23e
00000070: b4b4 6fbf f40c 753e f92d a1bf 2c77 44bf
00000080: 533d b03f 7911 663e be02 94be 3acc 01be
00000090: e5f8 243f 0cac ccbe a662 dfbe b4d7 873e
000000a0: 11c3 9e3e 0251 23bf 3f71 ccbe b772 6dbf
000000b0: bd96 b53f 332e 5b3f 3a5f edbd 8735 803f
000000c0: 473f 043f 8f81 06c0
0.8896186 -0.7915235 0.18852122 -0.35330853 -0.5635265 0.15085746 -0.12590185 -0.56584346
-0.32895863 0.98288393 -0.44985467 0.9844402 -0.43516877 1.3910197 -0.21923526 -0.23676077
-1.2313914 -0.13890725 0.9364599 0.11358709 0.22735295 0.6017549 -1.1368873 -0.7406233
-0.9431294 -0.19337682 0.7381924 0.41093302 -0.93635106 0.23930722 -1.2592155 -0.7674434
1.3768715 0.22467603 -0.28908342 -0.12675563 0.6444228 -0.3997501 -0.4362995 0.26531756
0.310082 -0.63795483 -0.3993015 -0.92753166 1.4186627 0.8561737 -0.11590429 1.0016335
0.51659054 -2.1016576

arith.constant1 f4 [10, 20]
00000000: ecfc 9ebe d382 633d 4070 8fbf 4a62 ef3c
00000010: 70a9 9e3d b832 c53e 70f1 273f 582b 82bd
00000020: 8012 80bd 510f 813e 54cc b63e d56f bb3f
00000030: cfff 193f e53f 223f d638 773f 4a5d 943f
00000040: ec75 763e 0b27 d0bd 2e0d d1bd 22f2 b23e
00000050: 42f6 6bbd 45ff 393e c975 61bd 54bb 503e
00000060: 6b71 07bf db8c b3bf 99c5 80bf ce91 2b3f
00000070: 98f1 5a3f 77ef c1bf 2672 383c 5be5 aebf
00000080: 1525 6c3e c482 1a3e ab11 d4be 7c15 06bf
00000090: 1553 bdbf 66a8 953c 33a5 103e f9eb 6b3e
000000a0: c244 c83d 47db fa3e 9009 8bbf 3dad 3d3f
000000b0: 5662 153f 1732 593f 60bf 833f 0038 d53e
000000c0: a9cd bb3e ac26 933f 4eb5 b13e acc1 2ebf
000000d0: 7924 fabe 7820 10bf 898d 09bf b851 89be
000000e0: 2690 5d3f 7f4e 003e 9551 bc3d a5d1 df3e
000000f0: 3463 b4bf 8706 ff3e f52c 3c3e 41f5 153f
00000100: 82f1 8e3e aa24 eabf 49c8 c4bf e497 ad3e
00000110: 7587 fb3e 7942 423d a9bb 8ebf 6545 8ebf
00000120: 6c5a 123f 1a5d 963e 18c2 a3bf e81d 9dbf
00000130: 19e7 2fbf d933 08bf 8378 e8bf 70c5 0d3f
00000140: c315 86be d030 b7bf d93f 0fbf 5aac aabf
00000150: ba25 8abf ddb6 243f 29a6 2a3c 0bcf aabf
00000160: f8b7 a6bf 04ad 02bf a61a 893e fd13 a8bf
00000170: 0cf2 a63e e814 97bc 1092 863e 99ea a23e
00000180: 7347 aabf 58ff aabf 6d7d b13d 0aaf 3c3d
00000190: fa13 39bf 10a4 87bf bc8a c33e 7b1e 413e
000001a0: bdec 4bbf c5c7 d63e c4e6 563e d192 02bf
000001b0: 942d dabe 27a4 bebd 908a 9f3e c22a 16bf
000001c0: e622 853e eb92 6d3e ce35 1fbe 86cc 59be
000001d0: f6ec bbbe 7bb5 83bf 5cd9 0e3f f17a 29be
000001e0: adda 093f 9d65 6dbe 5ede 81be 655c 82be
000001f0: d93d 59be c7ce e23e 77cc a73c 3bd3 bf3e
00000200: 2d10 203f e8ee 3b3f 57ee 433f 1db1 c0be
00000210: d6f8 1fbe 3e71 a43d 0869 a4be ab61 1abe
00000220: ba7c 0a3f 266f ed3e 11d0 4c3f fa2f 06bf
00000230: 3dc8 c3be 15c8 4abe df0c 51be 430f 0bbf
00000240: 54f6 4ebf 7e48 1dbe 9e1d a83d 5e7c 87be
00000250: 8a7b 08be 3211 8bbf 5166 1ebe 09bd d1be
00000260: 3e41 f03d 086a 5f3e ec48 d53e 56ca d13e
00000270: e452 46bf ae02 2dbf 7c23 bf3e cd39 8fbe
00000280: ace2 3ebf c79c c5bd f541 423e f6ba 16bf
00000290: 5364 ed3d 589d a23d 81ad 47be b0a1 0fbf
000002a0: c12a 8f3d 952d c0be a342 3d3d 0e71 69bf
000002b0: 9294 8bbf 2219 8e3e 6353 d13d 1fff 2b3e
000002c0: 044f 0bbe 55db 8bbe f827 84bb f119 2c3f
000002d0: 023c 7f3f 8744 aa3f 7c9b be3f 0392 903f
000002e0: d949 5b3f 2cbc 2f3e 2f49 703d 102a 0e3f
000002f0: 5d67 033f c1c1 903f 924e b23d 62be a93f
00000300: 4a69 b13d dcd7 fa3d d3a8 553e a670 4f3e
00000310: 59ca 583f 80eb 2b3f c333 583e cc84 483f
-0.3105234 0.055544686 -1.1206131 0.029221673 0.077471614 0.38515258 0.6560278 -0.063559234
-0.062535286 0.25206998 0.35702765 1.4643503 0.6015596 0.63378745 0.965711 1.159097
0.24068421 -0.10163697 -0.10207592 0.34950358 -0.057607897 0.18163784 -0.05504397 0.2038396
-0.5290744 -1.4027361 -1.0060302 0.67019355 0.8552489 -1.5151204 0.011257684 -1.3663744
0.2306102 0.15088946 -0.4141973 -0.5237653 -1.479098 0.018268775 0.14125519 0.23039235
0.097787395 0.4899542 -1.0862293 0.74092466 0.58353174 0.84842056 1.0292778 0.41644287
0.36680344 1.1496177 0.34708637 -0.6826427 -0.4885595 -0.56299543 -0.5373159 -0.2682016
0.8654808 0.12529944 0.09195248 0.43714634 -1.4092774 0.49809667 0.18376525 0.5857735
0.2791863 -1.8292439 -1.5373622 0.33904946 0.49126783 0.047426675 -1.1151019 -1.1114928
0.5716922 0.29367906 -1.2793608 -1.2274752 -0.68712 -0.53204113 -1.8161777 0.5537939
-0.26188478 -1.4311771 -0.559568 -1.3333848 -1.0792763 0.6434153 0.010415592 -1.3344434
-1.3024893 -0.5104525 0.26778144 -1.31311 0.32606542 -0.018442586 0.26283312 0.3181961
-1.3303055 -1.3359175 0.08666501 0.046065368 -0.72296107 -1.0596943 0.38191783 0.18859284
-0.7965811 0.41949287 0.20986468 -0.51005274 -0.42612898 -0.09308653 0.31160402 -0.58658993
0.26003188 0.23200576 -0.15547869 -0.21269426 -0.36704224 -1.0289758 0.55800414 -0.16550805
0.538493 -0.23183294 -0.25364965 -0.25461116 -0.21215 0.44298384 0.020483239 0.37465844
0.6252468 0.73411417 0.7653555 -0.37635127 -0.15622267 0.08029412 -0.32111382 -0.1507632
0.5409657 0.46373862 0.80004984 -0.52416956 -0.38238707 -0.19802888 -0.20415066 -0.5432016
-0.80844617 -0.15359685 0.08208774 -0.26462072 -0.13328376 -1.0864623 -0.15468718 -0.40964535
0.11731194 0.21817791 0.41657197 0.40974683 -0.7747023 -0.67582214 0.3733176 -0.27973786
-0.74564624 -0.096490435 0.18970473 -0.5887903 0.11591401 0.07940167 -0.1949978 -0.5610609
0.069905765 -0.37534776 0.046206128 -0.9118813 -1.0904715 0.2775355 0.10220983 0.1679654
-0.13604361 -0.27315775 -0.004033085 0.67227083 0.9970094 1.3302163 1.48912 1.1294559
0.8565956 0.17161626 0.058663543 0.5553293 0.51329595 1.1309129 0.08706392 1.3261225
0.086626604 0.12248203 0.20865183 0.20257816 0.8468376 0.6715622 0.21113496 0.7832763

arith.constant2 f4 [5]
00000000: 3a0e 853e ffac 0fbf cea1 873f 3507 8ebf
00000010: 925b 64be
0.25987417 -0.56123346 1.0596254 -1.109595 -0.22300556

arith.constant3 f4 [10]
00000000: 24cb a9be cb02 5d3f f818 2e3b 1cda 7c3e
00000010: e714 c13e f143 ae3e 32ab 273f 7ecf 193f
00000020: 77f4 163f e665 ccbe
-0.33162796 0.86332387 0.0026565176 0.24692577 0.3771126 0.3403621 0.654956 0.6008223
0.58966774 -0.39921492

sequential_1_1/dense_3_1/Add/ReadVariableOp f4 [20]
00000000: b87b 0e3f bc7a a7be 5ebe f5bd 9260 febe
00000010: 3eea bbbe 90cd a8be 7906 ccbe 3014 ffbe
00000020: e6dd bebe 3ade 3bbf a599 073e 4805 a3be
00000030: 8af3 213e 665a 3abe 7bfb 4ebf 9938 44bf
00000040: 300c 12bf afd8 e63e a1f6 8bbc 0e28 e9be
0.5565753 -0.32710826 -0.119992 -0.49683052 -0.3670215 -0.32969332 -0.39848688 -0.4982009
-0.3727867 -0.73385966 0.13242204 -0.31839967 0.15815559 -0.18198547 -0.8085248 -0.7664886
-0.57049847 0.4508719 -0.017085375 -0.45538372

sequential_1_1/dense_3_1/MatMul f4 [20, 42]
00000000: bd1d 99be 2c70 563e d0c1 c63d 4cae 293f
00000010: 5fbd 05bd f186 c23e 4328 febd cd76 753e
00000020: caf5 fc3c 181c 4d3e d430 003d 20ec 4f3e
00000030: 566e 8d3c ea2c b7bb e36f b8bd 215a ae3b
00000040: a401 99be 2061 abbc d988 633d 2f54 e43d
00000050: 4c67 cc3d ef7b f23d db87 10bd 50f9 743e
00000060: 6825 1dbd ce8b 8c3e ecbd 2f3e 182c 033b
00000070: 116f fe3d 20c0 c53c 3a67 79bd d2dc c63e
00000080: 2b1e d5be ab4d 613f 29cf 3e3e 4fd5 e3be
00000090: 1562 123e 6bd0 d3be 50c7 4d3d 8068 91b9
000000a0: 9f16 85be a2ef 043f 7940 23be 30fc e5bc
000000b0: 9359 733d a980 52bd 0370 e33e ceda 2dbe
000000c0: e430 3d3f a970 e2be aef3 573f 3692 2ebf
000000d0: 798c 99bc de3e 21bd 199f 0cbe f02a 063d
000000e0: 748d 03be 477e c23c e843 14be 84e0 a13c
000000f0: 7518 983d 468a f5bc af45 09bd c49e 6a3d
00000100: 0395 5f3d dc83 9b3d ca55 403d 1a58 943d
00000110: 5d02 383e 2ab9 3cbc 54b4 3cbe ea32 833d
00000120: fb7c 88be 1173 993d 443b b8be 7943 843e
00000130: aa86 6d3e 5950 473d db1f dbbd d5ea 013e
00000140: eb51 dcbe 7e92 3d3e 95ee 25bf 2343 993e
00000150: 30ed 55be 7075 8d3c b42b 9cbe 3bee c1be
00000160: 87ae 27be a8f0 babe b107 b2be 0cdc f7be
00000170: 58ee 02bf 27ce f4be 4c72 c9bd 28bb ef3c
00000180: 434e 4cbd a781 16bd 9d12 b93d 8844 65bc
00000190: fbea 3f3e c75a aabc 40bd 3ebe 1fd1 d43d
000001a0: 264a 82bd bb28 47bd 3153 543d 7f12 083e
000001b0: 4f3f 5a3d cbce 393e f229 45be c271 d73c
000001c0: ddd7 89bc 44bf 8fbd f8b6 7f3e d945 ac3e
000001d0: fcbf ca3e e881 843f c352 68be e9a9 833d
000001e0: 35d4 9f3c bdd4 86bc 622a a73e ae81 f43e
000001f0: b17f fd3e d303 8a3f 58e0 563e daa7 9abd
00000200: b342 2f3b e3db 023e d44b 353e e1ac ebbd
00000210: 2ff7 553f 30a3 1fbd 292d 633f 8e66 31bd
00000220: f9e8 dcbe 08aa 99bd 5db0 57be db11 6e3b
00000230: 9cf9 463d 1e6f 66bc 869b 343e a72d 3cbb
00000240: 617e 88be 450b 41bd 4f8d c7bd 553c 3e3d
00000250: fecb 913d a1f4 853d 90b1 243e a630 9a3d
00000260: e798 b2bd 9961 0fbd 56b0 b7bd d0fa 0d3b
00000270: c585 f5be 83ce e63b 050b 2bbf 97ef 113c
00000280: c85b 993c c9af 9dbc ec03 1dbe b534 863c
00000290: 2ccb 09bf b2da 00bd b461 31bf b4d3 dbbd
000002a0: d0aa e5bd 56fb 803e 1133 853e 109d a63e
000002b0: 7860 fbbd 3e43 1e3e b8cd 34bf 7da9 0f3c
000002c0: 48c0 56bf 2946 8ebd cee1 fb3d c861 753e
000002d0: 3baa 4b3e 0fee 9a3d d5eb af3d 9649 033c
000002e0: 5abb 7e3d 5125 34bc 8960 613c b5d5 5e3e
000002f0: 441d 663d 9d16 f43b 6178 903e c17a c2bb
00000300: 2077 023f 8bd1 5ebb 46c6 39be a744 8b3e
00000310: 436b ed3c 306f 47bd c994 023f 2cd8 eebe
00000320: 9314 753f fef8 54be 3c13 bebe ba58 af3e
00000330: dc35 1bbe 5430 103d 0285 db3d 0c58 30be
00000340: e209 bd3e 759a 9abe 7efc 0cbe c00a d33b
00000350: 38f6 6c3e dfe3 5c3f 0aaf 53bd 5f4e cf3e
00000360: 1eaf 45be 68a4 af3e 277c 6dbe fe20 ac3e
00000370: 5b22 883d 7fed cf3e 34e6 183d f8cf 863d
00000380: d69f 7c3d 1bc7 79bd d27f 243d 3e3f d0bd
00000390: 7106 9f3d 09cd 9b3e 1635 0c3c 6df0 8f3d
000003a0: 1c7d 3f3d 6fa6 8b3c 0f36 a5bb 75eb cabf
000003b0: b313 46bc e1dc 0f3e 3133 9ebc 0519 d43c
000003c0: 05ae d23d db32 b13d daf1 373e 3c43 e5bd
000003d0: 10d3 07bc 97ce b2bd f1a2 c6bd 32e1 dabd
000003e0: 9a2f 9abc 1a6a b9bd 8eec 16bd d8b2 073d
000003f0: 88ba e7bd 7829 be3d 5645 1e3d ceb0 3e3f
-0.299055 0.20941228 0.097049356 0.6628158 -0.0326513 0.37993577 -0.12410023 0.239711
0.03087892 0.20030248 0.031296566 0.20304918 0.017264526 -0.005590071 -0.09005716 0.005320803
-0.29884064 -0.020920336 0.05555043 0.11148869 0.0998064 0.11840045 -0.035285812 0.2392323
-0.03836575 0.27450413 0.17162293 0.0020015296 0.12423528 0.024139464 -0.06088946 0.38840348
-0.4162458 0.88009137 0.18633713 -0.4449868 0.14295228 -0.41369948 0.050238907 -0.00027734414
-0.2599382 0.5192815 -0.15942563 -0.028074354 0.059411597 -0.05139223 0.44421396 -0.16977999
0.73902726 -0.44226578 0.843562 -0.6819185 -0.01874374 -0.039366595 -0.13732566 0.032755792
-0.12846929 0.023741854 -0.14479029 0.019760378 0.0742654 -0.02997316 -0.03351372 0.057280317
0.054585468 0.075935096 0.046956815 0.072433665 0.17969652 -0.011518756 -0.18428165 0.064061955
-0.26657853 0.0749265 -0.35982716 0.25832728 0.23195902 0.04866061 -0.10699435 0.12687238
-0.43031248 0.18512914 -0.6481717 0.29934034 -0.20891261 0.017267913 -0.30502093 -0.37877068
-0.1637517 -0.3651173 -0.34771493 -0.4841007 -0.51144934 -0.47813532 -0.098362535 0.029264048
-0.049879324 -0.03674474 0.09036753 -0.01399339 0.18741982 -0.02079524 -0.1862688 0.10391449
-0.06361799 -0.048622828 0.05183715 0.13288306 0.053283032 0.18145292 -0.19254282 0.026299361
-0.016826564 -0.07018903 0.24972141 0.3364704 0.39599597 1.0352144 -0.22687821 0.06428892
0.019510368 -0.016458863 0.32649523 0.47755188 0.49511483 1.0782417 0.20984018 -0.075515464
0.0026742637 0.12779193 0.17704707 -0.115075834 0.835803 -0.038973987 0.88740784 -0.043310694
-0.43146494 -0.07503134 -0.21063371 0.003632656 0.04857789 -0.014064578 0.17637452 -0.0028713734
-0.2665892 -0.047129888 -0.09743749 0.046444256 0.071189865 0.065408 0.1608336 0.0752881
-0.0872057 -0.035005186 -0.0896918 0.0021664388 -0.4795362 0.007043661 -0.6681369 0.00890722
0.018720523 -0.01924886 -0.15333527 0.016382555 -0.5382564 -0.031458564 -0.6928971 -0.107337385
-0.112142205 0.25191754 0.26015523 0.32541704 -0.12274259 0.15455338 -0.706264 0.0087684365
-0.8388715 -0.06946976 0.12298928 0.23963082 0.19889157 0.07564937 0.08589903 0.00801315
0.06219039 -0.010995225 0.013755926 0.2176121 0.056180254 0.007448985 0.28216842 -0.0059350436
0.5096302 -0.003399941 -0.18142042 0.27200815 0.02898181 -0.04869002 0.5100828 -0.466493
0.9573452 -0.20798108 -0.3712405 0.3424738 -0.15157264 0.03520234 0.107187286 -0.17221087
0.36921602 -0.30195966 -0.13768193 0.0064404905 0.231408 0.86285204 -0.051680602 0.4048948
-0.19305083 0.3430512 -0.23191892 0.3361892 0.06647178 0.40610883 0.037328914 0.06582636
0.06167587 -0.060980897 0.04016096 -0.101683125 0.077649005 0.30429867 0.008557579 0.070282795
0.046750173 0.017047135 -0.0050418447 -1.5853106 -0.012089658 0.14049102 -0.01931152 0.025890836
0.10287098 0.08652278 0.17963353 -0.111944646 -0.008290067 -0.0873081 -0.09699047 -0.10687484
-0.018821526 -0.090534404 -0.03684669 0.033129543 -0.11314875 0.09285253 0.038640343 0.7448853
